Assets/NN Models/DriveBehavior.onnx (onnx, 105508 bytes, 11 tensors)

60 f4 [34]
0.3104433 0.14642046 0.38039437 0.17918384 0.45307514 0.21387698 0.49143302 0.23086958
0.42035416 0.19876152 0.32764944 0.1525474 0.17325789 0.08211578 0.24782865 0.11432536
0.082279526 0.03931122 0.19650365 0.09000331 0.044515308 0.021436831 0.14804417 0.067565896
0.024406746 0.011826591 0.11472739 0.052394435 0.012890494 0.00636073 0.0949684 0.04363727
0.00642129 0.0033979493
00000000: 6df2 9e3e 3fef 153e 0dc3 c23e f87b 373e
00000010: 77f9 e73e 9102 5b3e 1c9d fb3e 1369 6c3e
00000020: a938 d73e 2488 4b3e abc1 a73e 6335 1c3e
00000030: 846a 313e 512c a83d cbc6 7d3e 6a23 ea3d
00000040: 2b82 a83d cd04 213d 4138 493e a853 b83d
00000050: af55 363d 4b9c af3c e498 173e fd5f 8a3d
00000060: a8f0 c73c 51c4 413c 32f6 ea3d 8c9b 563d
00000070: a732 533c ac6d d03b cb7e c23d febc 323d
00000080: af69 d23b 21b0 5e3b

63 f4 [34]
0.12725736 0.10771564 0.1420462 0.12023492 0.13669512 0.1157444 0.24105522 0.20346466
0.15569492 0.13189878 0.37693468 0.31766573 0.18763834 0.15901642 0.46789497 0.39432487
0.2629433 0.22290288 0.50000006 0.4215883 0.39274505 0.33327517 0.4636634 0.39128998
0.4815499 0.4092885 0.3653178 0.30853435 0.49958247 0.42541766 0.26622123 0.22480772
0.48068994 0.41015777
00000000: c14f 023e 049a dc3d 8f74 113e ba3d f63d
00000010: cef9 0b3e 660b ed3d 2ed7 763e 0a59 503e
00000020: 7d6e 1f3e 7910 073e 95fd c03e 15a5 a23e
00000030: 4424 403e 33d5 223e ee8f ef3e f3e4 c93e
00000040: 81a0 863e a740 643e 0100 003f 6cda d73e
00000050: e115 c93e 0ba3 aa3e 4a65 ed3e 2957 c83e
00000060: b58d f63e 438e d13e ef0a bb3e 37f8 9d3e
00000070: 46c9 ff3e 58d0 d93e 264e 883e ff33 663e
00000080: fe1c f63e 3300 d23e

action_model._continuous_distribution.log_sigma f4 [1, 2]
-0.19006176 -0.5077346
00000000: 8d9f 42be e5fa 01bf

action_model._continuous_distribution.mu.bias f4 [2]
-0.026564248 0.021415886
00000000: 449d d9bc 5e70 af3c

action_model._continuous_distribution.mu.weight f4 [2, 128]
-0.0017941232 -0.011350668 0.023720093 -0.00881064 0.013483432 -0.034733184 -0.02068547 0.009967678
0.011517142 0.015770834 -0.015127777 -0.011923897 0.016519584 -0.031528916 0.017658787 -0.04251853
-0.016124977 0.009722357 0.00063608174 -0.020481354 -0.034171358 0.008103984 0.042082697 -0.024236245
0.017875195 -0.011567414 0.008206537 -0.02645684 -0.0332755 0.023613686 0.02047823 -0.014923967
0.016086206 0.010297455 0.051017653 0.04291148 -0.0129116215 -0.04051477 -0.013484159 0.004040253
0.04856069 -0.0045589353 0.0049235597 0.028439088 -0.019772217 -0.0117570795 0.029838093 0.0050501586
0.02601857 0.008873141 -0.028974758 -0.04510642 -0.0064129247 0.0031660937 0.034405604 0.02965798
-0.033180267 -0.030106971 0.029003503 -0.01749115 -0.028310196 -0.01226106 -0.03916619 -0.019109502
-0.003656854 -0.005639169 -0.019068854 0.017381635 -0.031973757 -0.017776651 -0.027284734 -0.011109268
0.03568503 0.024369262 0.03069727 -0.0010896765 0.030736584 -0.015123354 0.009601776 0.040578842
-0.03534273 -0.0077331667 -0.004751416 -0.08640759 -0.045024786 -0.022838252 0.018193413 0.015931498
-0.020561188 0.004414819 -0.0050285007 0.02336493 0.018890176 -0.0054112216 -0.022296399 -0.032727305
0.011426464 -0.0038446009 0.006950497 0.023740768 -0.02614658 0.03336883 0.014505878 -0.009169703
-0.036590595 -0.034045517 -0.0010733616 -0.022533087 0.03083151 0.003366633 -0.00036271662 -0.021227118
-0.01766802 -0.027007129 -0.02509885 -0.00042834095 0.035885416 -0.009000329 0.0056169024 -0.0072611226
-0.00828621 0.01379989 0.0077944794 -0.0028611894 0.007998951 0.025047759 -0.037721302 -0.012416843
0.016152345 0.04534571 -0.0727081 -0.0437722 -0.018897885 -0.009314066 -0.026130252 0.011350342
-0.058082554 -0.0080231195 0.053734045 -0.043119904 0.009423225 -0.011940225 -0.0015352061 -0.01460075
-0.007804137 -0.0032576518 0.059232224 0.0355066 -0.014547189 -0.022613809 -0.014659627 -0.0064049596
0.0018552102 0.00103549 -0.0119508505 -0.030067578 -0.020309651 -0.019313391 -0.03423784 -0.079515465
0.007250533 0.009387378 -0.058399122 -0.028400753 -0.008876336 0.038147237 -0.008398283 0.048341297
0.007879323 -0.017284106 -0.06808771 -0.040278558 0.046455912 -0.06482422 -0.01675321 0.033563375
0.042479187 -0.045571126 -0.007557402 -0.0043168874 -0.005731177 -3.418341e-05 -0.048741464 -0.007214149
-0.029703258 0.03971812 -0.004759743 0.042951368 0.052396044 0.0016391638 -0.018870372 -0.07286156
-0.00042892128 -0.001625353 -0.038453113 -0.029941859 -0.017712275 -0.0026166926 0.009331092 0.031240666
-0.011768648 -0.01356653 0.0034461585 0.010191625 0.00097410684 0.007744219 0.013120413 -0.010665231
-0.024031341 -0.07356952 0.0013100076 0.0012390187 0.031757373 -0.03488895 0.002478075 0.03414488
-0.015928308 -0.02698384 0.008524126 0.0018809151 -0.003895978 -0.020882413 -0.025415348 -0.010769229
0.054393582 0.011440738 0.04679486 -0.012130837 -0.0037494893 -0.006899442 0.008343008 0.001338976
-0.0009096353 0.04253006 -0.0011226819 -0.010312704 -0.020197717 0.012035148 0.031054309 -0.051963136
0.025869304 0.009895912 -0.047811706 0.053332254 -0.007703038 -0.047917426 0.029387733 0.04923458
0.05226409 -0.015613427 0.009223769 0.02323521 0.0009587642 0.007059072 0.023667876 0.01661617
00000000: c928 ebba 27f8 39bc a450 c23c 815a 10bc
00000010: 9de9 5c3c 6244 0ebd 9374 a9bc 794f 233c
00000020: 65b2 3c3c d631 813c 7fda 77bc 735c 43bc
00000030: 1454 873c 7724 01bd 29a9 903c e927 2ebd
00000040: 8718 84bc 854a 1f3c b9be 263a 83c8 a7bc
00000050: 44f7 0bbd 93c6 043c e85e 2c3d 178b c6bc
00000060: 006f 923c 4085 3dbc b674 063c 04bc d8bc
00000070: e44b 08bd 7d71 c13c f6c1 a73c a883 74bc
00000080: 38c7 833c a8b6 283c e3f7 503d f3c3 2f3d
00000090: 448b 53bc d1f2 25bd a9ec 5cbc 1964 843b
000000a0: 93e7 463d 1f63 95bb d055 a13b 17f9 e83c
000000b0: 58f9 a1bc c4a0 40bc 046f f43c cd7b a53b
000000c0: e524 d53c a760 113c 795c edbc 82c1 38bd
000000d0: 8323 d2bb 3d7e 4f3b e4ec 0c3d 4bf5 f23c
000000e0: 08e8 07bd e5a2 f6bc c198 ed3c 9a49 8fbc
000000f0: c9ea e7bc 9de2 48bc ba6c 20bd 888b 9cbc
00000100: d4a7 6fbb c7c8 b8bb 4936 9cbc ee63 8e3c
00000110: eaf6 02bd 57a0 91bc 3c84 dfbc a603 36bc
00000120: 772a 123d 0ca2 c73c d778 fb3c 7ad3 8eba
00000130: 4acb fb3c f2c7 77bc c450 1d3c 0036 263d
00000140: 8ac3 10bd 8166 fdbb c4b1 9bbb 76f6 b0bd
00000150: e96b 38bd 4917 bbbc 5a0a 953c c682 823c
00000160: f06f a8bc 30aa 903b 1fc6 a4bb cf67 bf3c
00000170: 92bf 9a3c 9e50 b1bb f0a6 b6bc 110d 06bd
00000180: 1036 3b3c b3f5 7bbb ffc0 e33b 007c c23c
00000190: 5a31 d6bc c1ad 083d 10aa 6d3c 863c 16bc
000001a0: 05e0 15bd 5073 0bbd 0ab0 8cba 4f97 b8bc
000001b0: 5d92 fc3c bba2 5c3b 002b beb9 7ee4 adbc
000001c0: 86bc 90bc 0e3e ddbc 1a9c cdbc f392 e0b9
000001d0: 96fc 123d 1e76 13bc fe0d b83b b6ee edbb
000001e0: e2c2 07bc ef18 623c d568 ff3b cb82 3bbb
000001f0: 080e 033c f530 cd3c a781 1abd 0470 4bbc
00000200: ec51 843c 6cbc 393d fce7 94bd 7a4a 33bd
00000210: bdcf 9abc 069a 18bc 1c0f d6bc c9f6 393c
00000220: f9e7 6dbd 6773 03bc 3b18 5c3d 7f9e 30bd
00000230: df63 1a3c efa0 43bc f838 c9ba fc37 6fbc
00000240: d9b9 ffbb 547e 55bb 7d9d 723d 5e6f 113d
00000250: 5557 6ebc 9840 b9bc ef2e 70bc b2e0 d1bb
00000260: 862a f33a 47b9 873a 80cd 43bc 4850 f6bc
00000270: 6d60 a6bc 1e37 9ebc fa3c 0cbd 01d9 a2bd
00000280: e195 ed3b 84cd 193c eb33 6fbd b2a8 e8bc
00000290: 0d6e 11bc 4740 1c3d f498 09bc 8601 463d
000002a0: 4718 013c 6697 8dbc 9271 8bbd 21fb 24bd
000002b0: 8e48 3e3d 90c2 84bd 073e 89bc c079 093d
000002c0: a8fe 2d3d caa8 3abd 15a4 f7bb ad74 8dbb
000002d0: 99cc bbbb 2860 0fb8 21a5 47bd ab64 ecbb
000002e0: 3f54 f3bc 78af 223d 9ef7 9bbb c6ed 2f3d
000002f0: 3c9d 563d 36d9 d63a 0a96 9abc 7138 95bd
00000300: d7e0 e0b9 cc09 d5ba 0381 1dbd a148 f5bc
00000310: 5519 91bc d17c 2bbb 70e1 183c 6dec ff3c
00000320: 4ad1 40bc 2746 5ebc f2d8 613b c6fa 263c
00000330: 345b 7f3a 38c3 fd3b 00f7 563c 39bd 2ebc
00000340: 60dd c4bc 9eab 96bd 90b4 ab3a 9266 a23a
00000350: 0514 023d b7e7 0ebd 3367 223b 80db 0b3d
00000360: 157c 82bc 370d ddbc c7a8 0b3c 0a89 f63a
00000370: aa53 7fbb 9811 abbc d933 d0bc 6c71 30bc
00000380: cecb 5e3d ef71 3b3c f8ab 3f3d 6bc0 46bc
00000390: feb9 75bb b714 e2bb 1db1 083c 9480 af3a
000003a0: 9774 6eba 0034 2e3d f426 93ba 9ef6 28bc
000003b0: af75 a5bc 122f 453c 9b65 fe3c 4cd7 54bd
000003c0: ddeb d33c 7722 223c 35d6 43bd ec72 5a3d
000003d0: c469 fcbb 1045 44bd 8bbe f03c 33aa 493d
000003e0: df12 563d 76cf 7fbc 4b1f 173c c457 be3c
000003f0: 9455 7b3a ca4f e73b 22e3 c13c a21e 883c

network_body._body_endoder.seq_layers.0.bias f4 [128]
-0.007798825 -0.008636701 -0.03021847 -0.033994034 0.011372267 -0.07399972 -0.013566948 0.009116692
-0.041787595 0.0020272331 -0.010093147 -0.005520061 -0.024959207 -0.039703015 0.0018404528 0.0095454855
-0.0447261 0.029203769 -0.035508517 0.006807262 -0.008208116 7.3513354e-07 0.010008373 -0.057543468
-0.0062274328 -0.0642739 0.013809747 -0.0020411094 -0.020134607 0.008615355 -0.0012589324 -0.032410473
0.026907502 -0.0041769585 -0.016459318 -0.051928975 0.0052619018 -0.01882828 0.0051840255 -0.056947447
0.0061318143 -0.033946596 -0.027706642 -0.005898185 -0.019682951 0.022019647 -0.05124225 0.0066713104
-0.00014878812 -0.041007165 -0.020942826 -0.016471442 -0.033520367 -0.016090298 -0.018902069 -0.023589808
0.0035117364 0.023801094 -0.010324258 -0.024262507 -0.0056361416 -0.041516628 -0.013464069 -0.00311791
0.011477375 -0.035675313 0.0050860043 -0.0030525688 -0.048822638 -0.010374821 -0.06332915 -0.03160712
-0.03196515 -0.04570457 -0.0036526525 -0.04097636 -0.025891442 -0.02252067 0.010363846 -0.0549822
0.00066465326 -0.04506942 -0.055641208 -0.02180227 -0.023736518 -0.0038924608 -0.003427053 -0.04137859
-0.034655586 0.009537304 0.0023247355 -0.038788456 0.0039737336 -0.003092037 0.009610229 -0.023322897
0.023384923 -0.025979603 0.0019958946 -0.007543449 -0.027478157 -0.028398085 -0.014498741 -0.063085996
-0.019381098 -0.0055490634 -0.03140153 -0.02333117 -0.015092218 0.017001186 -0.010042649 -0.003850825
-0.01558203 0.0034223893 -0.0047914153 -0.014681198 0.0045222756 0.016511135 -0.028581792 0.02258485
-0.055835895 0.0043250793 -0.014300163 0.012965966 -0.040924136 0.004525636 0.02272249 -0.015817268
00000000: 498d ffbb f380 0dbc ba8c f7bc 543d 0bbd
00000010: bf52 3a3c 2a8d 97bd e747 5ebc 2d5e 153c
00000020: 7829 2bbd 54db 043b ba5d 25bc a1e1 b4bb
00000030: 4077 ccbc a19f 22bd 593b f13a ab64 1c3c
00000040: b732 37bd be3c ef3c 6171 11bd 740f df3b
00000050: 557b 06bc fe55 4535 29fa 233c b3b2 6bbd
00000060: 7e0f ccbb 09a2 83bd 4742 623c 22c4 05bb
00000070: 55f1 a4bc 6b27 0d3c c302 a5ba d8c0 04bd
00000080: 1f6d dc3c dede 88bb b1d5 86bc 7ab3 54bd
00000090: 086c ac3b c43d 9abc c2de a93b ba41 69bd
000000a0: 63ed c83b 960b 0bbd 0af9 e2bc 9045 c1bb
000000b0: 243e a1bc 8c62 b43c 65e3 51bd 029b da3b
000000c0: 0204 1cb9 21f7 27bd 4a90 abbc 1eef 86bc
000000d0: a74c 09bd cdcf 83bc 83d8 9abc 6a3f c1bc
000000e0: 2925 663b 83fa c23c 1427 29bc 2ac2 c6bc
000000f0: 62af b8bb 570d 2abd 6698 5cbc d955 4cbb
00000100: 9a0b 3c3c 4720 12bd 7fa8 a63b 9b0d 48bb
00000110: 3ffa 47bd 27fb 29bc b7b2 81bd 7876 01bd
00000120: e4ed 02bd b734 3bbd 5761 6fbb d4d6 27bd
00000130: 4a1a d4bc 457d b8bc 1fcd 293c 0435 61bd
00000140: 203c 2e3a b69a 38bd 09e8 63bd ad9a b2bc
00000150: 1673 c2bc a818 7fbb 6998 60bb 997c 29bd
00000160: 04f3 0dbd 5a42 1c3c 975a 183b a5e0 1ebd
00000170: 1836 823b c6a3 4abb 3974 1d3c a90f bfbc
00000180: bd91 bf3c 2dd3 d4bc 8ecd 023b 092f f7bb
00000190: df19 e1bc 1aa3 e8bc 218c 6dbc 3b33 81bd
000001a0: 1cc5 9ebc ebd4 b5bb e49e 00bd 0321 bfbc
000001b0: 5a45 77bc 1246 8b3c ec89 24bc 1f5e 7cbb
000001c0: c54b 7fbc 2a4a 603b 4e01 9dbb 6889 70bc
000001d0: 992f 943b 5c42 873c 5d24 eabc dd03 b93c
000001e0: 2eb4 64bd 65b9 8d3b 3b4b 6abc 346f 543c
000001f0: 11a0 27bd c94b 943b 8424 ba3c 3793 81bc

network_body._body_endoder.seq_layers.0.weight f4 [128, 68]
0.048680257 -0.051737864 -0.058574125 -0.19916034 -0.042266566 0.12578914 0.062145893 0.09607547
0.010071243 -0.043616194 0.06120938 0.095200926 -0.07658477 0.1819719 -0.26315325 -0.03836355
0.17137626 -0.02947733 -0.059333492 -0.19681075 -0.03521149 0.15509024 0.3059759 0.16624703
-0.047420394 -0.064548165 -0.21117197 0.11096721 -0.026425604 0.071402885 -0.1612882 -0.11816221
-0.014654143 -0.036214985 0.026110984 -0.0903807 0.0836563 0.02025042 0.0696553 0.16068059
0.05935328 0.05839581 0.06756841 0.099317595 -0.006875057 -0.14720277 -0.13588019 0.039068058
0.0252627 0.12508668 0.11817304 -0.14654933 0.22060277 0.18435581 -0.033344872 -0.019275475
0.1932784 0.08368919 0.17815682 0.026819326 -0.016960723 0.026395332 -0.06718027 0.15512262
0.053923085 0.044815395 0.038760997 0.043455955 -0.28499514 0.13452783 -0.08361431 -0.09865957
-0.112562895 -0.08502955 -0.09701725 0.092092454 -0.1717398 -0.1745069 0.16809978 0.15905169
0.06933178 0.15431762 -0.10042502 0.04898744 -0.12762263 -0.20005827 -0.040330067 -0.098683156
0.0011067606 -0.03454877 -0.078864045 -0.22851898 -0.02283224 0.076391555 0.012613985 0.04984681
0.034091145 -0.011220723 0.13333847 0.019698208 -0.18089977 -0.0049980013 0.23677988 0.036295906
-0.011524579 0.1218042 -0.17143604 0.19912732 0.061862055 0.11247074 0.108663306 0.22212507
0.081006736 0.07760009 0.08196298 -0.11636064 0.14835472 -0.09089969 0.08062949 -0.029672021
-0.15503812 0.020113947 0.048662398 0.0053181993 -0.17928618 -0.01394354 0.042716764 -0.014730215
-0.15201275 0.018170828 -0.023476942 0.07707967 0.029337674 0.2018827 0.30013523 0.127021
-0.040688436 0.111979924 0.046587847 -0.1905274 -0.032246996 -0.076149754 0.052550156 -0.08270411
0.09409376 0.26183957 -0.032365218 -0.015576329 -0.0215933 0.041046984 0.18982112 0.059446655
0.016901629 -0.190437 0.009145107 -0.03492159 -0.08010777 0.0677367 -0.12916523 0.039472125
-0.23161316 -0.123594984 -0.07927706 0.09270437 -0.24292485 -0.24165665 0.020287575 0.011754046
-0.118683614 -0.1592715 0.0373027 -0.15125914 0.05126911 -0.058268342 -0.26905197 0.21094213
0.18472016 -0.01014089 -0.07580699 -0.002305451 0.019875852 0.15824452 -0.09297174 0.17413355
0.050159004 0.012382209 0.11488603 0.22524002 -0.0510195 0.03187401 -0.03818661 -0.08380098
-0.19634144 0.13088791 -0.34329134 -0.0079262545 0.039660648 0.16350436 -0.19985476 0.08043416
0.116265036 0.08244555 -0.067020975 0.053366646 -0.054316305 -0.068831265 0.007647905 -0.03659895
-0.08316117 0.0847809 -0.07729834 0.11105783 -0.045212194 0.17059399 -0.03089053 0.058957502
0.082434595 -0.2723057 -0.2515811 0.19067113 0.023729395 -0.07232729 -0.014080287 -0.075176224
0.11306805 0.030613413 -0.07307594 0.107213296 0.073116906 0.022206888 -0.12366267 -0.07951104
-0.11865648 -0.062432684 -0.029821599 -0.1210145 -0.14217335 0.10525116 0.21151838 0.16586536
-0.15183659 0.012086477 0.019839186 -0.012239915 0.13043265 -0.0269949 -0.074276574 0.060698427
0.13065666 -0.13347876 -0.008590709 -0.050051223 -0.018587796 -0.023856195 0.00988753 -0.018316558
00000000: f364 473d 15eb 53bd 6ceb 6fbd b0f0 4bbe
00000010: b51f 2dbd dece 003e b18c 7e3d 37c3 c43d
00000020: db01 253c e5a6 32bd b0b6 7a3d b4f8 c23d
00000030: 7ad8 9cbd d756 3a3e 06bc 86be 1923 1dbd
00000040: 427d 2f3e 717a f1bc ad07 73bd c288 49be
00000050: ec39 10bd facf 1e3e e0a8 9c3e a93c 2a3e
00000060: e33b 42bd d431 84bd 773d 58be c742 e33d
00000070: 827a d8bc ad3b 923d bc28 25be 07ff f1bd
00000080: ee17 70bc 2a56 14bd b4e6 d53c 8419 b9bd
00000090: ff53 ab3d 35e4 a53c 70a7 8e3d 7489 243e
000000a0: 6d1c 733d 7230 6f3d 4e61 8a3d 0667 cb3d
000000b0: 2848 e1bb 53bc 16be 2d24 0bbe d405 203d
000000c0: b9f3 ce3c b916 003e b504 f23d 0711 16be
000000d0: b1e5 613e c5c7 3c3e a294 08bd 9ae7 9dbc
000000e0: c6ea 453e 3d65 ab3d be6e 363e 34b4 db3c
000000f0: 37f1 8abc 063b d83c cf95 89bd 77d8 1e3e
00000100: 74de 5c3d 5990 373d dac3 1e3d dffe 313d
00000110: e2ea 91be aac1 093e fb3d abbd 070e cabd
00000120: 6087 e6bd f923 aebd fbb0 c6bd f89a bc3d
00000130: 8fdc 2fbe f0b1 32be 5922 2c3e 72de 223e
00000140: d2fd 8d3d 7005 1e3e a2ab cdbd 0ea7 483d
00000150: 82af 02be 13dc 4cbe 2431 25bd 651a cabd
00000160: b910 913a 0383 0dbd 7983 a1bd e100 6abe
00000170: ae0a bbbc 2d73 9c3d e3aa 4e3c 2b2c 4c3d
00000180: 28a3 0b3d 20d7 37bc e189 083e 235e a13c
00000190: ca3d 39be 46c6 a3bb 6d76 723e 04ab 143d
000001a0: 96d1 3cbc 7b74 f93d ee8c 2fbe 08e8 4b3e
000001b0: 1163 7d3d 0f57 e63d de8a de3d c174 633e
000001c0: dce6 a53d ccec 9e3d 35dc a73d 7d4e eebd
000001d0: 4dea 173e 9e29 babd 1321 a53d bd12 f3bc
000001e0: 50c2 1ebe 01c6 a43c 3952 473d 4a44 ae3b
000001f0: cc96 37be 7273 64bc c6f7 2e3d 0057 71bc
00000200: 3ba9 1bbe fdda 943c b752 c0bc f2db 9d3d
00000210: 9055 f03c 57ba 4e3e 53ab 993e cb11 023e
00000220: eba8 26bd bb55 e53d e6d2 3e3d 9d19 43be
00000230: 6d15 04bd 67f4 9bbd d53e 573d c660 a9bd
00000240: 3bb4 c03d d60f 863e 6491 04bd dc33 7fbc
00000250: 6fe4 b0bc e220 283d 7860 423e 567e 733d
00000260: 4975 8a3c eb01 43be 5cd5 153c f109 0fbd
00000270: 8b0f a4bd 8ab9 8a3d e443 04be 86ad 213d
00000280: 002c 6dbe 5e1f fdbd 035c a2bd cadb bd3d
00000290: 4bc1 78be d774 77be 2132 a63c 0b94 403c
000002a0: 6510 f3bd 1118 23be b7ca 183d ade3 1abe
000002b0: 8fff 513d c9aa 6ebd 2ec1 89be 3701 583e
000002c0: 4827 3d3e fa25 26bc b240 9bbd 0d17 17bb
000002d0: afd2 a23c da0a 223e f867 bebd 1150 323e
000002e0: 8773 4d3d c0de 4a3c 5e49 eb3d 52a5 663e
000002f0: d3f9 50bd 528e 023d 9069 1cbd d99f abbd
00000300: bb0d 49be 7b07 063e e2c3 afbe 1fdd 01bc
00000310: 3473 223d b06d 273e baa6 4cbe aaba a43d
00000320: 5d1c ee3d 36d9 a83d 4b42 89bd fc96 5a3d
00000330: c67a 5ebd 68f7 8cbd 479b fa3b c8e8 15bd
00000340: 6750 aabd 9ca1 ad3d 984e 9ebd 4a72 e33d
00000350: 6c30 39bd 31b0 2e3e 230e fdbc 6c7d 713d
00000360: 78d3 a83d a76b 8bbe 3dcf 80be 4b3f 433e
00000370: 2664 c23c 5520 94bd 01b1 66bc fef5 99bd
00000380: 3990 e73d fbc8 fa3c d7a8 95bd a592 db3d
00000390: 51be 953d 38eb b53c db42 fdbd afd6 a2bd
000003a0: 2b02 f3bd 6ab9 7fbd 6d4c f4bc 73d6 f7bd
000003b0: e495 11be ec8d d73d 4698 583e 9cd8 293e
000003c0: 0d7b 1bbe 5c06 463c ca85 a23c ed89 48bc
000003d0: 2390 053e 6924 ddbc 511e 98bd ea9e 783d
000003e0: dcca 053e a8ae 08be 0cc0 0cbc 8302 4dbd
000003f0: 6f45 98bc 116e c3bc 4eff 213c 9b0c 96bc

network_body._body_endoder.seq_layers.2.bias f4 [128]
-0.012215064 0.01454397 -0.008094161 -0.008879709 -0.03601016 -0.013508427 0.020200375 -0.018120684
-0.01555693 -0.04009943 0.03614521 -0.012334801 -0.020116054 -0.018070254 -0.00067585905 -0.0013991935
0.008541285 -0.034358945 0.023348657 -0.0020815153 -0.031673953 -0.007870071 -0.034744047 -0.004250545
-0.029881336 -0.02835131 -0.021033263 -0.008953561 -0.0041191163 -0.011944267 -0.012081063 -0.00401174
-0.043523252 -0.022749024 -0.00050318375 -0.037868377 -0.059004657 0.011179232 -0.0051633012 0.007843779
-0.0054311515 -0.009298165 -0.017361088 -0.016681414 0.0151793575 0.00091443496 -0.019632058 -0.0133260125
0.0077048624 -0.0054472648 -0.0035478256 -0.012541365 -0.029844604 -0.0069950153 -0.0047882614 -0.02039142
-0.00070969085 0.0068877917 -0.038314164 0.008745034 0.028621646 -0.025870072 0.0063240477 -0.0048145424
0.0058510005 -0.029658325 -0.0023681356 -0.039269958 -0.011850423 -0.0022156069 0.0028199176 -0.0016869672
-0.045568813 -0.013260601 -0.02530994 -0.04257995 -0.02642398 0.018749757 -0.022037936 -0.037720934
-0.02282491 -0.0047608414 -0.0038940066 0.010854776 0.0011197516 -0.008228854 -0.038740672 -0.017881375
0.0029598556 -0.01733042 -0.01918389 -0.009978378 -0.033369504 -0.004881131 -0.00041004253 -0.01574859
0.019665956 -0.01073199 0.016846696 -0.0095697595 -0.026980998 -0.03426192 -0.051501807 -0.013565906
0.0030083295 0.017529974 -0.014627372 -0.02583331 -0.007664023 -0.011364184 0.0020006143 0.0057485057
-0.009084939 -0.019192325 -0.012241798 0.017404724 -0.0067673014 -0.010619552 -0.00262463 0.01564707
0.014294196 -0.042740114 -0.025411503 -0.007595918 -0.018968616 -0.035319578 0.014667627 -0.009995187
00000000: b121 48bc d549 6e3c 5f9d 04bc 337c 11bc
00000010: 647f 13bd 7352 5dbc 427b a53c d471 94bc
00000020: 7ee2 7ebc 4d3f 24bd 000d 143d e817 4abc
00000030: 6cca a4bc 1208 94bc 222c 31ba 2565 b7ba
00000040: bff0 0b3c f7bb 0cbd af45 bf3c 086a 08bb
00000050: 8cbc 01bd 78f1 00bc c64f 0ebd 2848 8bbb
00000060: b4c9 f4bc 0241 e8bc f34d acbc f5b1 12bc
00000070: a7f9 86bb e3b1 43bc a7ef 45bc ea74 83bb
00000080: 7045 32bd 295c babc 17e8 03ba df1b 1bbd
00000090: deae 71bd 1929 373c e930 a9bb 3283 003c
000000a0: cdf7 b1bb 5557 18bc d738 8ebc 76a7 88bc
000000b0: d7b2 783c b1b6 6f3a 69d3 a0bc 5955 5abc
000000c0: 1279 fc3b f87e b2bb a382 68bb 4c7a 4dbc
000000d0: ac7c f4bc 7136 e5bb d9e6 9cbb e80b a7bc
000000e0: 8c0a 3aba fcb2 e13b 50ef 1cbd 5547 0f3c
000000f0: f177 ea3c 79ed d3bc f539 cf3b 4fc3 9dbb
00000100: c0b9 bf3b 04f6 f2bc b932 1bbb 89d9 20bd
00000110: 4728 42bc b733 11bb 5ece 383b 3a1d ddba
00000120: 5da6 3abd fe42 59bc cb56 cfbc 5068 2ebd
00000130: 1a77 d8bc 1799 993c e788 b4bc 4481 1abd
00000140: 4efb babc d500 9cbb 9732 7fbb 3bd8 313c
00000150: a1c4 923a 51d2 06bc 8aae 1ebd f67b 92bc
00000160: 23fa 413b 86f8 8dbc 8927 9dbc 5a7c 23bc
00000170: 76ae 08bd e5f1 9fbb fafa d6b9 3003 81bc
00000180: 801a a13c 3bd5 2fbc 1502 8a3c 7bca 1cbc
00000190: 4107 ddbc 3a56 0cbd 8ff3 52bd 8943 5ebc
000001a0: 6527 453b 059b 8f3c a5a7 6fbc 61a0 d3bc
000001b0: 7c22 fbbb d830 3abc bd1c 033b f65d bc3b
000001c0: ffd8 14bc 3939 9dbc d391 48bc 5a94 8e3c
000001d0: 3dc0 ddbb a1fd 2dbc fc01 2cbb 492e 803c
000001e0: 3432 6a3c 4210 2fbd c92b d0bc 2ee7 f8bb
000001f0: 1264 9bbc 43ab 10bd 7d50 703c dac2 23bc

network_body._body_endoder.seq_layers.2.weight f4 [128, 128]
0.05161248 0.06536465 0.028739547 0.19021085 0.03502494 -0.14679794 0.049155153 0.054320958
-0.05333498 -0.15612914 -0.04697726 -0.024099067 0.015946329 0.0066099204 0.030789474 0.051672343
-0.01696705 0.02995826 0.062432084 -0.0195812 0.03399911 -0.057530314 -0.054083653 0.06945241
-0.012314007 0.07431998 -0.075516775 -0.016427975 -0.09894849 -0.077616565 0.031099735 0.1163128
-0.037356827 0.0477866 0.012340815 -0.014749455 -0.094186865 0.071170636 -0.10579432 0.057763185
-0.010695934 0.0498781 0.18362181 -0.13582301 0.039053813 -0.26488188 0.003879039 0.17586425
-0.023551747 -0.17869471 0.05290368 -0.010485593 0.1180552 -0.13154757 -0.05664247 -0.058666583
-0.046711516 0.16001037 0.079844445 0.0245945 -0.06523268 0.10079705 -0.030508405 0.109543286
0.02373402 0.11910707 0.044197805 0.090602584 0.051256966 0.11550319 0.1068475 0.116048574
0.0022342694 0.10269398 0.024059974 -0.012534239 0.043070246 -0.0032413378 -0.08107362 0.04894143
-0.12591293 -0.047311373 -0.023835266 -0.09106832 -0.10103992 -0.049188267 -0.167221 -0.020621816
-0.034409452 0.027124984 -0.13474792 -0.08285732 0.108298875 -0.06298111 0.052333586 -0.01712002
-0.0035799188 -0.008942589 0.063280575 0.0564265 -0.10577665 -0.27492043 -0.053166144 0.071325175
0.14114858 -0.024537396 -0.016263848 -0.061688963 0.016284771 0.06919735 -0.07197191 0.062200364
-0.11853224 0.020287924 0.1659148 -0.0038450155 0.031439237 0.020219646 -0.13097538 -0.0050051855
-0.060088832 -0.03347225 0.09254962 -0.04325597 0.042787943 0.00373316 -0.09216646 0.052991033
-0.036511198 -0.10235077 0.15888278 -0.09425306 -0.18868995 0.033163667 -0.013654855 -0.083234526
-0.05711808 -0.022740051 -0.023224996 0.1437179 0.0751658 -0.06591913 -0.000106337335 0.024013307
0.29221046 0.2503886 -0.055556405 0.081577115 -0.06421679 0.029392222 0.0074900985 -0.01315054
0.061381005 -0.0089038415 0.3288192 0.035599343 0.11700737 -0.18456216 -0.011601966 -0.14324732
-0.064387895 0.024384074 -0.12135044 -0.0065650707 -0.020746866 -0.014147524 0.04095261 0.027281705
0.1417713 -0.16223723 0.097986035 -0.17237788 -0.061013307 -0.048955858 -0.03662058 0.0817751
-0.15556477 0.0672256 -0.060952716 0.06129385 0.08835704 -0.040567815 -0.11501682 0.15759794
-0.012989812 0.09174649 -0.10188553 -0.016736807 -0.18391378 -0.05006653 -0.00040955885 0.18937555
-0.05653024 -0.049084272 0.20594317 -0.03582723 0.043924376 0.04544821 -0.051449258 -0.0029198981
0.0010328564 0.074311875 0.05120166 -0.06726778 0.011168458 0.050181914 -0.037422534 -0.0932016
0.090359 0.100143395 -0.106989525 0.08437598 -0.10554039 -0.08376843 0.004157863 -0.11882562
-0.059383985 -0.11196155 -0.14984034 0.020984834 -0.00659474 0.02403672 0.09052823 -0.04899252
0.0056519746 0.0019321651 0.048080675 -0.104530275 -0.008158936 -0.021014435 -0.08893087 -0.06663044
0.069724396 -0.014909249 -0.0052254917 0.11450679 -0.078111544 -0.064918675 0.010521438 -0.025987742
-0.08437444 0.010424527 0.052739754 0.067718044 0.019948613 0.03166026 -0.103254914 0.043618772
0.123069026 -0.06839534 -0.09459746 -0.017677408 0.01860127 0.02497683 0.075350344 -0.03132732
00000000: 9c67 533d e7dd 853d 336f eb3c a2c6 423e
00000010: 5076 0f3d 3352 16be ea56 493d a77f 5e3d
00000020: c875 5abd 51e0 1fbe 3a6b 40bd 686b c5bc
00000030: e0a1 823c 0898 d83b 353a fc3c 61a6 533d
00000040: 7cfe 8abc 066b f53c c9b8 7f3d c168 a0bc
00000050: a742 0b3d e8a4 6bbd d286 5dbd 113d 8e3d
00000060: b0c0 49bc 1335 983d 8aa8 9abd f693 86bc
00000070: 82a5 cabd 6ff5 9ebd dfc4 fe3c 6835 ee3d
00000080: 7903 19bd e2bb 433d 2131 4a3c b3a7 71bc
00000090: 0be5 c0bd e9c1 913d b1aa d8bd 1799 6c3d
000000a0: 003e 2fbc fb4c 4c3d 5b07 3c3e 3015 0bbe
000000b0: e4f6 1f3d 999e 87be 7a37 7e3b c215 343e
000000c0: 98ef c0bc bffb 36be 87b1 583d c4cb 2bbc
000000d0: edc6 f13d 68b4 06be ef01 68bd 5f4c 70bd
000000e0: 9354 3fbd c2d9 233e 7c85 a33d 687a c93c
000000f0: b698 85bd af6e ce3d c3ec f9bc 3b58 e03d
00000100: d96d c23c 68ee f33d c208 353d d98d b93d
00000110: d3f2 513d f08c ec3d ddd2 da3d e0aa ed3d
00000120: d26c 123b 3951 d23d 6c19 c53c 695c 4dbc
00000130: 6d6a 303d a06c 54bb ed09 a6bd cf76 483d
00000140: 52ef 00be 92c9 41bd 2d42 c3bc 0782 babd
00000150: 04ee cebd a379 49bd fb3b 2bbe 15ef a8bc
00000160: edf0 0cbd 3735 de3c 5cfb 09be 19b1 a9bd
00000170: cdcb dd3d 3dfc 80bd be5b 563d 493f 8cbc
00000180: 129d 6abb f083 12bc 3f99 813d 791f 673d
00000190: 6ea1 d8bd 5fc2 8cbe bec4 59bd ef12 923d
000001a0: 4189 103e a602 c9bc c33b 85bc 91ad 7cbd
000001b0: a467 853c 57b7 8d3d 0266 93bd cfc5 7e3d
000001c0: 08c1 f2bd dc32 a63c 92e5 293e a8fc 7bbb
000001d0: 6ec6 003d aca3 a53c 691e 06be 8a02 a4bb
000001e0: b51f 76bd 331a 09bd a88a bd3d 2c2d 31bd
000001f0: 6942 2f3d 08a8 743b c5c1 bcbd 200d 593d
00000200: c48c 15bd 489d d1bd 2bb2 223e c007 c1bd
00000210: f037 41be a0d6 073d 9db8 5fbc dd76 aabd
00000220: a6f4 69bd 5849 babc 5942 bebc c92a 133e
00000230: 87f0 993d 9c00 87bd 6c01 dfb8 8eb7 c43c
00000240: 9c9c 953e ef32 803e 1d8f 63bd e711 a73d
00000250: 1884 83bd f5c7 f03c 806f f53b 5d75 57bc
00000260: a66a 7b3d 6be1 11bc fd5a a83e 9ed0 113d
00000270: 8fa1 ef3d ddfd 3cbe 2c16 3ebc 6daf 12be
00000280: cddd 83bd 1cc1 c73c 9486 f8bd ce1f d7bb
00000290: 55f5 a9bc 04cb 67bc edbd 273d e27d df3c
000002a0: 7f2c 113e 8421 26be e7ac c83d d483 30be
000002b0: 17e9 79bd f085 48bd 76ff 15bd b479 a73d
000002c0: 5f4c 1fbe 93ad 893d 8ea9 79bd 430f 7b3d
000002d0: 89f4 b43d 702a 26bd f08d ebbd 5b61 213e
000002e0: 38d3 54bc 95e5 bb3d 5ca9 d0bd a11b 89bc
000002f0: e553 3cbe 9012 4dbd 0fba d6b9 aaeb 413e
00000300: 418c 67bd 970c 49bd c4e2 523e 93bf 12bd
00000310: 0cea 333d e727 3a3d 75bc 52bd c35b 3fbb
00000320: e960 873a d330 983d d5b8 513d b1c3 89bd
00000330: e8fb 363c 8d8b 4d3d 5f48 19bd 7be0 bebd
00000340: 240e b93d fb17 cd3d 531d dbbd 50cd ac3d
00000350: 8f25 d8bd c88e abbd af3e 883b d95a f3bd
00000360: 9f3c 73bd 194c e5bd bf6f 19be 63e8 ab3c
00000370: b018 d8bb a8e8 c43c dd66 b93d 61ac 48bd
00000380: 3334 b93b b440 fd3a 3ef0 443d f813 d6bd
00000390: 0fad 05bc 7726 acbc 6321 b6bd 8a75 88bd
000003a0: aacb 8e3d ec45 74bc 9a3a abbb 8982 ea3d
000003b0: f2f8 9fbd 15f4 84bd 1c62 2c3c 3fe4 d4bc
000003c0: 82cc acbd a3cb 2a3c a405 583d c2af 8a3d
000003d0: 466b a33c 30ae 013d 5077 d3bd 99a9 323d
000003e0: 9d0b fc3d db12 8cbd 50bc c1bd 36d0 90bc
000003f0: b161 983c 369c cc3c 4851 9a3d 1351 00bd

network_body.observation_encoder.processors.0.normalizer.running_mean f4 [34]
0.108048536 0.57944375 0.17549849 0.611709 0.28851822 0.664198 0.59216547 0.8084346
0.77074623 0.891612 0.87768686 0.9430699 0.9690236 0.98532355 0.9342618 0.9696866
0.9931852 0.9967467 0.95976883 0.9815848 0.99801594 0.99904484 0.9775809 0.9897751
0.99940425 0.9997134 0.98666155 0.99391425 0.99983466 0.99991596 0.9909005 0.99582267
0.9999515 0.9999649
00000000: 8d48 dd3d 6d56 143f e0b5 333e f698 1c3f
00000010: a9b8 933e e108 2a3f 2898 173f 92f5 4e3f
00000020: a04f 453f af40 643f 16b0 603f 076d 713f
00000030: ee11 783f 2a3e 7c3f c82b 6f3f 623d 783f
00000040: 6341 7e3f cb2a 7f3f 69b3 753f 2449 7b3f
00000050: f97d 7f3f 67c1 7f3f be42 7a3f e761 7d3f
00000060: f5d8 7f3f 38ed 7f3f da95 7c3f 2a71 7e3f
00000070: 2af5 7f3f 7efa 7f3f a8ab 7d3f 3cee 7e3f
00000080: d2fc 7f3f b3fd 7f3f

network_body.observation_encoder.processors.1.normalizer.running_mean f4 [34]
0.016464243 0.16955775 0.02060028 0.17414545 0.019047119 0.17100239 0.061943416 0.20997141
0.024857568 0.1753155 0.17148614 0.3023234 0.036542166 0.18462828 0.32371652 0.43025827
0.07472131 0.2161689 0.5011015 0.57943183 0.19056076 0.31331548 0.68713 0.7360119
0.36542317 0.46073097 0.84138507 0.8660667 0.52046406 0.5917028 0.9232342 0.93519384
0.637618 0.6908267
00000000: 05e0 863c 8ca0 2d3e ebc1 a83c 2f53 323e
00000010: b408 9c3c 401b 2f3e 61b8 7d3d bf02 573e
00000020: 19a2 cb3c e885 333e 109a 2f3e 22ca 9a3e
00000030: 3dad 153d 320f 3d3e 2cbe a53e d04a dc3e
00000040: 7c07 993d 615b 5d3e 3048 003f a555 143f
00000050: 5c22 433e e36a a03e c0e7 2f3f 476b 3c3f
00000060: bf18 bb3e eee4 eb3e 0365 573f 8cb6 5d3f
00000070: 223d 053f d679 173f 1459 6c3f dd68 6f3f
00000080: ef3a 233f 05da 303f
